app/src/main/ml/SMEUs_ClassificationModel.tflite (tflite, 174624 bytes, 8 tensors)

sequential_2/dense_9/BiasAdd/ReadVariableOp f4 [128]
-0.032388832 -0.046727177 -0.016870938 -0.1201718 -0.036755644 -0.027128484 -0.040947635 -0.013854205
-0.03478296 -0.029357333 -0.018998194 -0.0119944345 -0.011386045 -0.036084756 -0.014828856 0.0
-0.11020316 -0.017049488 -0.03098463 -0.1200372 -0.0059938626 -0.0129527785 -0.02608295 -0.039121374
0.09513203 0.06598453 -0.014398022 0.10523742 0.08131037 -0.044252194 -0.09433754 0.0020962637
-0.020506337 -0.013773882 0.04206877 -0.034990754 -0.020139176 -0.058750115 0.08227681 0.06217892
-0.030983552 -0.021316035 0.003612188 -0.124241866 0.13218379 -0.031013127 -0.08425602 -0.010716146
-0.013097654 -0.014895425 -0.008908936 -0.013609883 0.03948914 -0.00658488 0.028237471 -0.024938582
0.079674475 -0.028799087 0.08127861 0.058705147 -0.025656836 -0.015406957 0.021308308 -0.019605914
-0.047497466 0.10575453 0.07834395 -0.022476828 -0.022876235 -0.04549688 -0.0045707147 -0.03097379
-0.015985595 -0.021697752 0.09735397 -0.13039365 0.094931215 -0.048493393 -0.04252134 -0.031187952
0.07420073 0.121305525 -0.039785344 -0.037046045 -0.015170549 -0.0055575743 0.06837782 0.08694512
0.102850325 -0.020627797 -0.034916595 -0.028158354 -0.031025862 -0.021986686 -0.024909666 0.052797645
-0.08625043 -0.07340266 0.15429172 -0.04234718 -0.0065745516 -0.035398427 0.029665107 -0.008001362
-0.027573941 0.0 -0.035104416 -0.015752746 0.047590394 -0.10954 -0.05380014 -0.03040277
-0.0060108923 0.03620548 -0.03727116 -0.14742343 -0.020896358 -0.01957154 0.082887724 -0.07315929
-0.054004345 -0.009809698 0.009374704 -0.021226365 -0.02745054 -0.02388833 -0.0122628985 -0.011780506
00000000: 27aa 04bd ff64 3fbd ec34 8abc a21c f6bd
00000010: 168d 16bd 8e3c debc b5b8 27bd bffc 62bc
00000020: 9478 0ebd ca7e f0bc 1aa2 9bbc 4e84 44bc
00000030: 898c 3abc 9ccd 13bd bbf4 72bc 0000 0000
00000040: 32b2 e1bd 5eab 8bbc 7bd3 fdbc 10d6 f5bd
00000050: 2a68 c4bb e437 54bc e9ab d5bc bc3d 20bd
00000060: 95d4 c23d e622 873d aee5 6bbc b786 d73d
00000070: 0d86 a63d ca41 35bd 0a34 c1bd 7861 093b
00000080: e8fc a7bc d9ab 61bc 4d50 2c3d 7752 0fbd
00000090: eafa a4bc f6a3 70bd bf80 a83d 53af 7e3d
000000a0: 38d1 fdbc f79e aebc 75ba 6c3b 8572 febd
000000b0: 305b 073e 3e0f febc 6c8e acbd c692 2fbc
000000c0: 8b97 56bc f10b 74bc c9f6 11bc fdfb 5ebc
000000d0: 5dbf 213d fac5 d7bb 4552 e73c ff4b ccbc
000000e0: 5f2c a33d 10ec ebbc 6675 a63d cf74 703d
000000f0: 492e d2bc 766d 7cbc c38e ae3c 959c a0bc
00000100: b48c 42bd d595 d83d cb72 a03d 5321 b8bc
00000110: f166 bbbc f05a 3abd efc5 95bb bfbc fdbc
00000120: 39f4 82bc 7cbf b1bc 8561 c73d ea85 05be
00000130: 4c6b c23d 02a1 46bd db2a 2ebd e07d ffbc
00000140: 8df6 973d 086f f83d f5f5 22bd 98bd 17bd
00000150: e58d 78bc 501c b6bb ac09 8c3d 4810 b23d
00000160: 31a3 d23d a0fb a8bc b404 0fbd 59ac e6bc
00000170: f329 febc 6c1d b4bc 5b0f ccbc 5842 583d
00000180: 11a4 b0bd 2254 96bd a6fe 1d3e 3d74 2dbd
00000190: 566f d7bb f1fd 10bd 3d04 f33c 2518 03bc
000001a0: bfe2 e1bc 0000 0000 a6c9 0fbd e70b 81bc
000001b0: 25ee 423d 8256 e0bd 895d 5cbd 3b0f f9bc
000001c0: 05f7 c4bb 334c 143d a5a9 18bd 2bf6 16be
000001d0: d72e abbc 7f54 a0bc 0ac1 a93d 8ad4 95bd
000001e0: a933 5dbd dbb8 20bc 5c98 193c eae2 adbc
000001f0: f4df e0bc 76b1 c3bc 53ea 48bc 0603 41bc

sequential_2/dense_10/BiasAdd/ReadVariableOp f4 [64]
1.123199e-05 0.08400296 0.028029108 -0.02936516 -0.061827205 -0.014327828 0.039861787 0.0061531253
-0.045967594 -0.064839356 -0.031662405 -0.05023123 -0.041863043 0.022421809 0.0061132484 0.015021702
-0.10147782 -0.06450916 -0.122847445 -0.03912613 -0.022071144 -0.05414468 -0.04982347 -0.012994848
0.15612902 -0.02282046 0.0 0.06911375 0.19029729 0.10501696 -0.031293154 -0.09144013
-0.06320722 0.14313652 -0.17975052 0.04946588 -0.013406727 -0.025491796 0.16374056 0.009502578
-0.057024274 0.13774367 -0.05689981 -0.04622287 0.039967373 -0.038477596 0.16233324 0.083507694
0.085319676 0.046668272 0.02595235 -0.11079106 -0.06471319 -0.043143228 -0.028116392 -0.06354283
-0.0861111 0.15043837 0.003614491 -0.21788645 -0.03879052 -0.016709995 -0.03463479 -0.089674585
00000000: 0871 3c37 be09 ac3d 4d9d e53c 348f f0bc
00000010: 863e 7dbd 44bf 6abc 1d46 233d 28a0 c93b
00000020: 8448 3cbd 7fca 84bd 70b0 01bd 43bf 4dbd
00000030: 9578 2bbd f1ad b73c a551 c83b 961d 763c
00000040: 9ad3 cfbd 611d 84bd 7197 fbbd b942 20bd
00000050: 8bce b4bc d0c6 5dbd b213 4cbd 58e8 54bc
00000060: 49e0 1f3e f9f1 babc 0000 0000 828b 8d3d
00000070: 4bdd 423e 2213 d73d 402d 00bd f644 bbbd
00000080: c972 81bd 6192 123e 8510 38be bc9c 4a3d
00000090: e4a7 5bbc 2cd4 d0bc 9bab 273e b3b0 1b3c
000000a0: 4992 69bd ad0c 0d3e c60f 69bd 3154 3dbd
000000b0: d4b4 233d af9a 1dbd af3a 263e 1506 ab3d
000000c0: 15bc ae3d 3b27 3f3d 069a d43c 6ce6 e2bd
000000d0: 5988 84bd f4b6 30bd 5954 e6bc be22 82bd
000000e0: 045b b0bd 840c 1a3e 19e1 6c3b a01d 5fbe
000000f0: cfe2 1ebd 66e3 88bc 36dd 0dbd 4fa7 b7bd

sequential_2/dense_11/BiasAdd/ReadVariableOp f4 [9]
0.07549896 0.04525725 -0.021980079 -0.055329658 0.15151496 -0.2224438 -0.04510867 0.01016441
-0.15300453
00000000: 339f 9a3d ab5f 393d 910f b4bc 5aa1 62bd
00000010: bd26 1b3e 4fc8 63be dec3 38bd a088 263c
00000020: 38ad 1cbe

sequential_2/dense_8/BiasAdd/ReadVariableOp f4 [256]
0.10338701 -0.112985484 -0.0061703078 0.09661567 0.11952743 -0.005712312 0.0 0.0
0.0 0.14421368 -0.013465706 0.0 0.052776497 0.13376169 0.04625958 0.0
-0.03931549 -0.17011434 0.0940281 -0.010929285 -0.16634263 -0.0055136024 0.010664531 -0.2359608
-0.063587084 -0.13030756 0.110078804 0.06726088 -0.22958022 -0.008704247 0.0 -0.09449284
0.16344315 -0.030686915 -0.0789071 0.093277365 -0.03956157 0.0 -0.15709771 -0.05534073
-0.10931543 -0.08060023 0.0 0.0 0.0 0.10658929 0.0 0.0
-0.11353656 -0.068555936 0.017105931 -0.089761004 0.0 -0.11012464 0.11264506 -0.13024308
-0.08025256 -0.11433078 0.058414664 -0.13550703 0.0 0.0 0.10264672 0.09206379
-0.09212904 -0.097398855 -0.06445171 0.0 0.013266696 -0.11729175 -0.119852096 0.08681902
0.15089907 -0.094489306 0.026333518 -0.090860665 0.06160431 0.06789734 0.0 0.0
0.13656542 -0.049477234 -0.16613904 0.0 -0.09262835 0.045115292 0.10255679 -0.09356357
-0.0046526655 -0.17684509 0.10533476 0.100490265 0.14339752 0.0 -0.021371039 0.062949985
0.0 -0.10784073 -0.09375076 0.0 -0.20716362 -0.046101283 -0.007033778 0.065421954
0.0 0.20825371 -0.17029275 0.17928226 0.038088273 -0.008345057 0.09375568 -0.07694194
-0.12022391 0.0 -0.0074527347 0.0 0.0 0.0 0.0 -0.008195697
-0.0070341723 -0.110199146 -0.08694811 0.0 0.017307678 -0.016199676 -0.1717991 -0.0926524
-0.044568434 -0.08363788 -0.09436903 0.062119655 -0.21787031 0.029269913 -0.15273145 0.14708918
-0.09288407 -0.080053605 0.0819746 -0.12086167 0.0 0.0 0.060634036 -0.08606988
-0.07705405 0.0 0.0 -0.00423558 0.12029639 0.009205754 0.0 -0.05538874
0.079045884 0.087606326 -0.10323008 0.05670346 0.12144392 -0.045227934 -0.17309947 -0.022091348
0.0 0.0 0.0 -0.09239844 -0.013882314 0.11802262 0.027322259 0.0
0.17298889 0.0 -0.059514802 -0.027981278 -0.19687052 0.09713849 0.0050322916 0.0
-0.044946495 0.06727138 -0.030449696 0.0781678 0.107001275 0.0 0.0 0.0
0.03381517 0.12833226 -0.05868648 -0.009805321 0.0 0.13822733 0.0 -0.06303366
0.039679185 0.010218977 -0.11408967 -0.17703004 -0.008029896 0.060904037 0.0 0.075932965
0.06871155 -0.061047114 0.08831843 0.014171575 0.13402243 0.0 -0.072676465 0.0
-0.13938458 -0.02754726 0.14505044 0.011747405 -0.044531938 0.13233592 0.0 0.0
0.0 0.1261758 0.15343173 0.08253943 0.032514893 0.0 0.14877896 0.07379245
0.15086523 -0.03364189 0.089665875 -0.015618946 -0.024267258 0.15122168 0.0 -0.00764595
-0.083252534 -0.12875876 -0.12894002 0.0 -0.06103305 -0.062127132 -0.013160785 -0.13450167
-0.052906204 0.0023273819 0.033069357 0.0 0.12969299 0.1773751 0.009410609 0.11956792
0.045519345 -0.057174515 0.10279216 -0.093186826 -0.091486715 0.0 0.0 -0.07492716
00000000: 92bc d33d ef64 e7bd 4b30 cabb 70de c53d
00000010: ccca f43d 592e bbbb 0000 0000 0000 0000
00000020: 0000 0000 c0ac 133e 449f 5cbc 0000 0000
00000030: 2b2c 583d d3f8 083e af7a 3d3d 0000 0000
00000040: 4709 21bd 7432 2ebe ce91 c03d be10 33bc
00000050: b955 2abe 73ab b4bb 49ba 2e3c b59f 71be
00000060: f239 82bd 586f 05be ff70 e13d 12c0 893d
00000070: 1417 6bbe 429c 0ebc 0000 0000 7685 c1bd
00000080: a45d 273e 2063 fbbc 0c9a a1bd 3408 bf3d
00000090: 500b 22bd 0000 0000 39de 20be f6ac 62bd
000000a0: c5e0 dfbd bc11 a5bd 0000 0000 0000 0000
000000b0: 0000 0000 7c4b da3d 0000 0000 0000 0000
000000c0: db85 e8bd 0e67 8cbd bd21 8c3c 9ed4 b7bd
000000d0: 0000 0000 0789 e1bd 74b2 e63d 715e 05be
000000e0: 745b a4bd 4226 eabd 3744 6f3d 5bc2 0abe
000000f0: 0000 0000 0000 0000 7238 d23d f18b bc3d
00000100: 26ae bcbd 0d79 c7bd 42ff 83bd 0000 0000
00000110: 8e5c 593c a836 f0bd 0475 f5bd 2cce b13d
00000120: 4985 1a3e 9c83 c1bd 64b9 d73c 2815 babd
00000130: cd54 7c3d c30d 8b3d 0000 0000 0000 0000
00000140: ced7 0b3e a4a8 4abd 5a20 2abe 0000 0000
00000150: efb3 bdbd d0ca 383d 4b09 d23d 429e bfbd
00000160: 6375 98bb e116 35be c0b9 d73d d7cd cd3d
00000170: cdd6 123e 0000 0000 5112 afbc eceb 803d
00000180: 0000 0000 9adb dcbd 6600 c0bd 0000 0000
00000190: b322 54be b3d4 3cbd 9b7b e6bb f2fb 853d
000001a0: 0000 0000 7640 553e 3961 2ebe c595 373e
000001b0: 7302 1c3d b5b9 08bc fa02 c03d bc93 9dbd
000001c0: f437 f6bd 0000 0000 1236 f4bb 0000 0000
000001d0: 0000 0000 0000 0000 0000 0000 3f47 06bc
000001e0: ea7e e6bb 17b0 e1bd da11 b2bd 0000 0000
000001f0: d5c8 8d3c 2fb5 84bc 1aec 2fbe 8bc0 bdbd
00000200: 648d 36bd 564a abbd 8d44 c1bd 2e71 7e3d
00000210: 6519 5fbe 75c7 ef3c a265 1cbe 8c9e 163e
00000220: 013a bebd 25f3 a3bd 4de2 a73d 5386 f7bd
00000230: 0000 0000 0000 0000 655b 783d 6845 b0bd
00000240: 84ce 9dbd 0000 0000 0000 0000 9fca 8abb
00000250: f45d f63d bbd3 163c 0000 0000 4edf 62bd
00000260: cfe2 a13d f26a b33d 4b6a d3bd e341 683d
00000270: 97b7 f83d ed40 39bd fd40 31be eaf8 b4bc
00000280: 0000 0000 0000 0000 0000 0000 653b bdbd
00000290: a572 63bc d8b5 f13d eed2 df3c 0000 0000
000002a0: 0024 313e 0000 0000 cbc5 73bd fe38 e5bc
000002b0: 6d98 49be 8bf0 c63d ece5 a43b 0000 0000
000002c0: d119 38bd 94c5 893d a471 f9bc 7116 a03d
000002d0: 7c23 db3d 0000 0000 0000 0000 0000 0000
000002e0: c781 0a3d 8869 033e 3c61 70bd 7fa6 20bc
000002f0: 0000 0000 778b 0d3e 0000 0000 cb17 81bd
00000300: a486 223d 7f6d 273c d8a7 e9bd 5d47 35be
00000310: d38f 03bc 8376 793d 0000 0000 be82 9b3d
00000320: a4b8 8c3d 8a0c 7abd 4be0 b43d e52f 683c
00000330: 2d3d 093e 0000 0000 66d7 94bd 0000 0000
00000340: d5ba 0ebe cbaa e1bc 1a88 143e 3078 403c
00000350: 1f67 36bd 1183 073e 0000 0000 0000 0000
00000360: 0000 0000 3b34 013e 351d 1d3e 6f0a a93d
00000370: 562e 053d 0000 0000 8359 183e 7f20 973d
00000380: 6a7c 1a3e 14cc 09bd bea2 b73d 9ce6 7fbc
00000390: 21cc c6bc dbd9 1a3e 0000 0000 e18a fabb
000003a0: 4e80 aabd 56d9 03be da08 04be 0000 0000
000003b0: cbfd 79bd 0579 7ebd 55a0 57bc ceba 09be
000003c0: 2db4 58bd fd86 183b bc73 073d 0000 0000
000003d0: 3dce 043e d1a1 353e f42e 1a3c 07e0 f43d
000003e0: 7e72 3a3d d32f 6abd b284 d23d bcd8 bebd
000003f0: 635d bbbd 0000 0000 0000 0000 6973 99bd

sequential_2/dense_8/MatMul f4 [256, 4]
0.10718884 -0.2464932 -0.23007095 0.09056196 -0.0018948655 -0.046221893 -0.028275894 0.022305094
-0.06604875 0.11772116 -0.0036914537 -0.10560961 -0.14905645 -0.062543534 0.013859584 0.111767724
0.030839402 -0.24133119 0.076609924 0.10423623 0.021444943 0.07387134 -0.02819803 -0.07205319
0.018589199 -0.049532764 0.010329381 -0.024809957 -0.05321476 -0.09890175 0.041758567 -0.13546301
-0.014492348 -0.12733024 0.082074836 -0.06833467 -0.05369471 -0.21277955 0.20573416 0.14109308
-0.106267095 -0.0993305 -0.07923896 0.04474937 -0.077504694 -0.06515759 -0.051446907 -0.024496228
-0.004063289 -0.20389521 0.096595444 0.013914577 -0.05143189 -0.90555596 0.2825689 0.11904039
0.11410022 -0.21531323 0.108222775 0.047432225 -0.062247157 -0.005190417 -0.029093027 -0.0679116
0.13815558 0.38334593 -0.07481895 -0.053506583 -0.015941905 0.11880758 0.004536784 -0.06895535
0.05144139 -0.2557201 -0.0045104753 0.11427877 0.1585983 -0.187494 0.20554282 0.01693045
0.20223545 -0.019488174 -0.0065145795 -0.096747346 0.10643124 0.009068652 0.0031435562 -0.12883049
0.008887661 -0.07074165 0.35782915 0.05289367 0.22163385 0.20054078 -0.006988059 -0.0897384
0.12396823 0.25692612 -0.4168475 -0.07249617 -0.12734285 0.038766388 -0.11962325 0.011641513
-0.0030210721 -0.004512754 -0.39944455 0.13521075 0.014268647 -0.24609737 0.01529607 0.10073097
0.18948215 -0.051594228 0.08259954 -0.07074893 -0.040597223 -0.06896505 -0.10786949 -0.004221557
0.042039365 -0.00293231 0.051200077 -0.086439006 -0.08616827 0.22001594 0.037805386 -0.0159544
0.012630592 -0.17309771 -0.10990198 0.11484871 -0.26364136 -0.11474215 0.2521973 0.06815618
-0.070906036 0.22344793 -0.19818945 0.03430592 -0.034185518 -0.22463997 1.3365381e-05 0.14109907
-0.045072787 -0.12553546 -0.13480814 0.05787873 0.11472416 -0.12589715 -0.06178523 -0.114862755
0.030101312 0.099851325 0.16682634 -0.07364554 0.1666532 0.12485436 -0.5451827 -0.02790689
-0.040621623 0.24391112 -0.19794473 -0.022280458 0.049445756 0.32893106 -0.03084518 -0.12879491
0.071603626 0.009419963 0.026585698 -0.09381607 0.031615496 -0.09383589 0.09314795 -0.10180117
-0.06635334 0.03346905 0.057654917 -0.06445839 0.022797624 -0.22885476 0.01772583 0.09388379
-0.05212622 -0.074619755 0.11516705 -0.0903277 -0.063482456 -0.11131553 -0.090955585 -0.15088306
0.06663496 0.17653227 0.37074828 -0.062122576 -0.06682635 0.265329 0.06866214 -0.011526402
0.062989384 0.3617385 -0.30156115 -0.026277922 -0.11200826 0.2638625 -0.22936192 0.045362685
-0.0062116683 -0.054605328 0.13991052 -0.09777725 0.046006672 0.22344987 0.16011372 -0.05904068
-0.118531644 -0.34440616 0.20985425 0.102113836 -0.0018193822 0.21456504 -0.22102863 -0.030467696
0.05760129 -0.095618576 -0.022439249 -0.03430278 0.22951849 0.2727336 -0.013334036 -0.1182152
-0.55151457 0.19796365 -0.13836779 0.017062306 0.28090715 0.27550063 -0.022145918 -0.14262599
-0.0358579 -0.049791545 -0.019045651 -0.054094 -0.13816798 0.077446595 -0.05398538 -0.1433831
0.020298311 -0.17539272 0.1340694 0.080382824 -0.90207547 0.1074079 0.16591674 0.093336344
00000000: d385 db3d b768 7cbe b897 6bbe 8d78 b93d
00000010: 235d f8ba 2b53 3dbd d9a2 e7bc 2cb9 b63c
00000020: 9144 87bd cb17 f13d 51ec 71bb da49 d8bd
00000030: 41a2 18be d316 80bd 4f13 633c 7ae6 e43d
00000040: eaa2 fc3c 861f 77be aae5 9c3d ce79 d53d
00000050: 4ead af3c db49 973d 8eff e6bc 9f90 93bd
00000060: 6048 983c dee2 4abd 903c 293c 403e cbbc
00000070: b8f7 59bd 008d cabd 080b 2b3d d1b6 0abe
00000080: 5071 6dbc dc62 02be da16 a83d 0cf3 8bbd
00000090: fcee 5bbd e2e2 59be faab 523e b47a 103e
000000a0: 90a2 d9bd ca6d cbbd 0948 a2bd 1e4b 373d
000000b0: c8ba 9ebd 5871 85bd feb9 52bd 50ac c8bc
000000c0: 5725 85bb e8c9 50be d5d3 c53d f7f9 633c
000000d0: 3faa 52bd 84d2 67bf dfac 903e 73cb f33d
000000e0: 60ad e93d 127b 5cbe e7a3 dd3d 4b48 423d
000000f0: e0f6 7ebd 6014 aabb 8054 eebc 3d15 8bbd
00000100: a878 0d3e eb45 c43e ad3a 99bd b829 5bbd
00000110: 9998 82bc 6351 f33d 4da9 943b 7638 8dbd
00000120: 35b4 523d bfed 82be 9ccc 93bb fd0a ea3d
00000130: 9867 223e 6dfe 3fbe d179 523e bab1 8a3c
00000140: cf16 4f3e aaa5 9fbc 4178 d5bb 7923 c6bd
00000150: 9ff8 d93d af94 143c 1f04 4e3b 24ec 03be
00000160: 8d9d 113c 00e1 90bd 6235 b73e 08a7 583d
00000170: fcf3 623e 905a 4d3e 16fc e4bb c4c8 b7bd
00000180: 0ee3 fd3d d28b 833e 096d d5be df78 94bd
00000190: 2a66 02be 81c9 1e3d 09fd f4bd 0bbc 3e3c
000001a0: 2efd 45bb b9df 93bb ff83 ccbe b074 0a3e
000001b0: 0bc7 693c f300 7cbe 5e9c 7a3c 0a4c ce3d
000001c0: 9c07 423e 7854 53bd f329 a93d d1e4 90bd
000001d0: 4649 26bd 8c3d 8dbd aeea dcbd fd54 8abb
000001e0: 7831 2c3d 002c 40bb 2cb7 513d ef06 b1bd
000001f0: fd78 b0bd dc4b 613e d2d9 1a3d cdb2 82bc
00000200: 8bf0 4e3c 8740 31be 4a14 e1bd cd35 eb3d
00000210: 00fc 86be effd eabd 0120 813e 7895 8b3d
00000220: 2f37 91bd 89cf 643e 2df2 4abe 5d84 0c3d
00000230: 1d06 0cbd 0508 66be e03b 6037 467c 103e
00000240: 3e9e 38bd 5e8c 00be 250b 0abe 3f12 6d3d
00000250: 80f4 ea3d 2feb 00be 8212 7dbd 2a3d ebbd
00000260: 0797 f63c da7e cc3d 86d4 2a3e 79d3 96bd
00000270: 23a7 2a3e a5b3 ff3d 1891 0bbf fd9c e4bc
00000280: dc62 26bd d6c3 793e 06b2 4abe 8285 b6bc
00000290: a287 4a3d a769 a83e 08af fcbc d0e2 03be
000002a0: eca4 923d 3056 1a3c 40ca d93c a422 c0bd
000002b0: 407f 013d 082d c0bd 5ac4 be3d 227d d0bd
000002c0: 43e4 87bd d816 093d 9027 6c3d c302 84bd
000002d0: 15c2 ba3c e758 6abe c335 913c 2546 c03d
000002e0: 4e82 55bd 3ed2 98bd b4dc eb3d bbfd b8bd
000002f0: 1703 82bd 66f9 e3bd ec46 babd 1781 1abe
00000300: e977 883d e0c4 343e b8d2 bd3e 3e74 7ebd
00000310: 41dc 88bd 34d9 873e bc9e 8c3d 3cd9 3cbc
00000320: 9400 813d ca35 b93e 3966 9abe cc44 d7bc
00000330: 9664 e5bd fc18 873e dadd 6abe 39ce 393d
00000340: 408b cbbb d6a9 5fbd b444 0f3e 703f c8bd
00000350: 7e71 3c3d 0bd0 643e daf4 233e a4d4 71bd
00000360: b8c0 f2bd 0156 b0be 08e4 563e 0f21 d13d
00000370: 5678 eeba f0b6 5b3e 5455 62be 6497 f9bc
00000380: 55ef 6b3d acd3 c3bd 84d2 b7bc 1281 0cbd
00000390: e506 6b3e bda3 8b3e 0077 5abc d01a f2bd
000003a0: 0f30 0dbf fcb6 4a3e 49b0 0dbe 40c6 8b3c
000003b0: 10d3 8f3e 6b0e 8d3e 5b6b b5bc 8c0c 12be
000003c0: bcdf 12bd 38f2 4bbd a005 9cbc ac91 5dbd
000003d0: e87b 0dbe 529c 9e3d c61f 5dbd 05d3 12be
000003e0: a548 a63c 269a 33be 7d49 093e c09f a43d
000003f0: 6bee 66bf acf8 db3d 14e6 293e 2027 bf3d

sequential_2/dense_9/MatMul f4 [128, 256]
-0.01104939 -0.020289883 -0.09934184 -0.14523703 -0.049005423 0.11894572 -0.059061497 -0.059728146
-0.026690692 0.048851036 -0.0029980456 -0.053249687 0.08838382 0.0013547838 -0.14214818 -0.031812847
0.008057471 0.0369439 -0.083922334 -0.08019142 -0.108192734 -0.026311636 -0.042963315 -0.1316946
-0.0988666 -0.13604343 0.03134006 -0.117389634 -0.024975505 -0.029194742 0.0002990067 -0.0008901873
0.036588043 -0.057937037 -0.11814414 -0.13278024 -0.12048083 0.043857127 -0.014056331 0.059139412
-0.028815724 -0.06439466 0.011938423 -0.038957983 -0.022600442 -0.046341803 -0.044392705 0.084949255
-0.09383508 -0.05522069 0.088872544 -0.06951749 0.11075023 -0.08275954 0.109128356 -0.048825044
-0.124452785 0.08643105 -0.08881829 0.029865406 0.06765953 -0.065167785 -0.032601982 0.0292527
-0.055341285 -0.018944584 0.07763209 -0.04939407 -0.022681085 -0.08185184 -0.080076605 0.07452367
-0.11148256 0.09114092 -0.081294246 -0.08626384 0.04237251 -0.14446273 6.7323446e-05 0.09405586
-0.012291074 0.06604426 0.027228162 -0.043769866 -0.12569731 -0.108241916 -0.12852217 -0.092316195
-0.08644889 0.06623826 0.09392472 0.049176283 -0.11691755 0.009782255 0.08998996 -0.09650861
-0.023556948 -0.07394943 -0.14151569 -0.057058156 0.08225893 -0.0036393197 -0.10732889 -0.013278522
-0.030981392 -0.050676957 -0.10244479 -0.04778767 -0.011900373 0.08352168 0.00092518114 -0.09698054
-0.062927365 -0.11998591 -0.043087184 0.0044092834 -0.06780261 0.071381 0.072312176 0.04037405
0.06277269 0.038898494 0.0869295 -0.104815066 -0.09350365 -0.09676145 0.081769094 0.074306615
0.06195596 0.074825644 -0.0473941 0.10785932 0.06695158 0.09132522 -0.086325675 -0.07469399
0.06004645 -0.048940483 -0.050174806 -0.12598906 -0.104993075 -0.010788858 0.009547774 0.051002808
-0.13130452 0.10774273 0.11613655 0.10833087 -0.031851336 -0.0699158 0.10011241 -0.053499665
-0.017947717 0.052753787 -0.11743385 -0.055890597 0.019394046 0.065474935 -0.019784696 0.06885687
0.118754834 0.10342565 0.04972735 -0.16006525 -0.13825634 -0.10004936 -0.11521271 -0.07854876
0.12734628 0.06211874 -0.13425052 -0.09170863 0.028965278 0.030514307 -0.09774426 0.11662027
0.071002826 -0.13859089 -0.030351257 -0.07321432 -0.14606246 -0.095091105 -0.061434 0.052648753
0.10953414 -0.13019074 -0.09546103 -0.054019094 -0.091151774 -0.09937983 -0.017748833 0.08518137
0.10313262 -0.09213004 0.03220598 0.034680784 0.11803019 0.03813494 0.11356464 -0.07727686
0.08585754 0.032932833 -0.017444152 -0.12650323 -0.028996272 0.034554332 -0.009310254 0.04409188
-0.03638859 -0.15425728 0.03248334 0.053633183 -0.088130206 -0.05706362 -0.07645154 -0.11886817
0.0665597 -0.10906634 0.025061885 -0.041003127 -0.03018629 -0.04278007 -0.14006288 0.051867716
0.046402514 -0.05766717 0.008809656 0.045660496 -0.023032641 0.00569281 0.0077513456 0.10093522
0.088692054 -0.08107757 0.08291651 0.052723825 0.021378186 0.038805034 0.11317286 -0.11645125
0.04211274 -0.124135286 0.0058414456 0.08224964 -0.016495574 -0.09441119 -0.013384721 0.056378335
-0.10219203 -0.07825922 0.034152567 -0.0010793785 -0.09659797 0.0029435158 -0.10283455 0.085210495
00000000: 8008 35bc f836 a6bc bc73 cbbd 04b9 14be
00000010: e9b9 48bd d099 f33d 78ea 71bd 80a5 74bd
00000020: 70a6 dabc 0618 483d dc7a 44bb 581c 5abd
00000030: 9402 b53d 0093 b13a 4b8f 11be 304e 02bd
00000040: 7c03 043c 7d52 173d 79df abbd 663b a4bd
00000050: 2794 ddbd 808b d7bc 4dfa 2fbd f3da 06be
00000060: 927a cabd f84e 0bbe 6f5e 003d fa69 f0bd
00000070: 6e99 ccbc d029 efbc 00c4 9c39 755b 69ba
00000080: 58dd 153d 634f 6dbd 8ef5 f1bd 8bf7 07be
00000090: a7be f6bd 88a3 333d 864c 66bc 2b3c 723d
000000a0: f40e ecbc 59e1 83bd 6099 433c 6892 1fbd
000000b0: 9024 b9bc e7d0 3dbd 20d5 35bd e0f9 ad3d
000000c0: 9b2c c0bd 172f 62bd cf02 b63d 305f 8ebd
000000d0: 04d1 e23d d57d a9bd b07e df3d c5fc 47bd
000000e0: 1ae1 febd c302 b13d 5de6 b5bd 4ca8 f43c
000000f0: 1491 8a3d b076 85bd a889 05bd 5ca3 ef3c
00000100: 8bad 62bd ac31 9bbc 93fd 9e3d 7051 4abd
00000110: afcd b9bc f0a1 a7bd 34ff a3bd de9f 983d
00000120: f850 e4bd 17a8 ba3d 997d a6bd 19ab b0bd
00000130: cc8e 2d3d 0aee 13be 0030 8d38 5ca0 c03d
00000140: 8060 49bc 3742 873d 980d df3c 0848 33bd
00000150: ccb6 00be f0ad ddbd 519b 03be 4610 bdbd
00000160: 1e0c b1bd eda7 873d 9b5b c03d 126d 493d
00000170: 7872 efbd c045 203c a84c b83d 4ea6 c5bd
00000180: 80fa c0bc cc72 97bd 7de9 10be d0b5 69bd
00000190: 5f77 a83d a781 6ebb 40cf dbbd 288e 59bc
000001a0: b0cc fdbc a492 4fbd 93ce d1bd 01bd 43bd
000001b0: c8f9 42bc 6a0d ab3d db87 723a bc9d c6bd
000001c0: 10e0 80bd 2cbb f5bd 307c 30bd c07b 903b
000001d0: 18dc 8abd 3430 923d 6818 943d 435f 253d
000001e0: f88e 803d 0754 1f3d 1808 b23d 48a9 d6bd
000001f0: d77e bfbd de2a c6bd 8e76 a73d 112e 983d
00000200: 88c5 7d3d 303e 993d 5120 42bd 59e5 dc3d
00000210: e91d 893d b808 bb3d 84cb b0bd 2af9 98bd
00000220: 44f3 753d d175 48bd 1984 4dbd 4703 01be
00000230: 9c06 d7bd c0c3 30bc 446e 1c3c 52e8 503d
00000240: b174 06be 38a8 dc3d 00d9 ed3d 93dc dd3d
00000250: 8c76 02bd 0430 8fbd bc07 cd3d 7722 5bbd
00000260: 1707 93bc 5b14 583d 2981 f0bd 8aed 64bd
00000270: 43e0 9e3c b917 863d 8413 a2bc d504 8d3d
00000280: bc35 f33d d4d0 d33d e8ae 4b3d 25e8 23be
00000290: 1293 0dbe aee6 ccbd a4f4 ebbd 2cde a0bd
000002a0: 1067 023e 3870 7e3d f878 09be bcd1 bbbd
000002b0: 9748 ed3c 24f9 f93c 252e c8bd 9cd6 ee3d
000002c0: ee69 913d c5ea 0dbe 33a3 f8bc 64f1 95bd
000002d0: 6691 15be 20bf c2bd 38a2 7bbd 38a6 573d
000002e0: 6f53 e03d b950 05be 1381 c3bd 2043 5dbd
000002f0: c8ad babd a787 cbbd 0066 91bc 9273 ae3d
00000300: 3237 d33d adae bcbd 6bea 033d 700d 0e3d
00000310: d0b9 f13d 6233 1c3d 9494 e83d 5543 9ebd
00000320: 14d6 af3d 94e4 063d 0ae7 8ebc 108a 01be
00000330: 9789 edbc d888 0d3d 098a 18bc b099 343d
00000340: 340c 15bd 9ff5 1dbe 400d 053d 78ae 5b3d
00000350: 9c7d b4bd 8bbb 69bd a092 9cbd 2871 f3bd
00000360: 7450 883d 2c5e dfbd 954e cd3c e5f2 27bd
00000370: 3d49 f7bc 283a 2fbd a56c 0fbe 3e73 543d
00000380: 9010 3e3d 6934 6cbd 6056 103c 8006 3b3d
00000390: f3ae bcbc c08a ba3b 00ff fd3b 20b7 ce3d
000003a0: 2ea4 b53d ff0b a6bd 22d0 a93d f0f4 573d
000003b0: 4e21 af3c 07f2 1e3d 2cc7 e73d fe7d eebd
000003c0: 697e 2c3d a43a febd 9969 bf3b 8072 a83d
000003d0: ba21 87bc a75a c1bd 974b 5bbc f8ec 663d
000003e0: 0e4a d1bd 5f46 a0bd 90e3 0b3d ef79 8dba
000003f0: 28d5 c5bd 00e8 403b ec9a d2bd d782 ae3d

sequential_2/dense_10/MatMul f4 [64, 128]
-0.019826293 -0.21458682 0.060373716 -0.15449359 -0.0036064123 -0.010513171 0.089209646 -0.29616457
0.10464162 -0.012376085 0.17026407 -0.24073863 -0.3493466 -0.044460434 0.18860741 -0.14533511
-0.16888702 0.10854854 -0.103527285 -0.03189665 0.06994088 0.09235938 0.1064148 -0.20123437
0.100642964 -0.043673925 -0.12740949 0.23835124 0.10018222 0.025249414 -0.13427766 -0.10149371
-0.13754605 0.06382387 -0.046092104 -0.12740995 0.10231848 -0.04088961 0.064232014 0.22582923
-0.12837385 0.17570062 -0.21985129 -0.039848097 0.065116204 -0.17492375 0.1095082 -0.05357942
0.027785644 -0.15378904 0.039878592 -0.060349397 0.29318663 -0.1955235 0.0070507554 -0.053943027
-0.40586278 0.08864642 0.14971879 -0.13523704 0.14192042 0.18392113 -0.07049647 0.13583727
-0.14476526 0.104967006 0.21537594 0.015558466 0.04346448 -0.014151713 -0.20727025 -0.098483294
0.098586276 0.04189506 0.14731349 -0.13880607 -0.19692332 -0.21132153 -0.12091949 0.0022136718
0.1888478 0.017371025 -0.093185924 -0.14466818 0.09333344 0.10575841 -0.030615618 0.12116999
-0.16566232 0.010020307 -0.13852604 0.15240164 0.046647836 0.14242575 -0.01852954 0.1846221
0.0038438335 -0.002481494 0.035780147 0.007164672 -0.1668517 -0.15393855 -0.14143653 0.079940364
-0.015088273 0.016236648 0.17116761 -0.008553957 -0.37046006 -0.019760907 0.13849558 -0.08984128
-0.10218381 -0.106166855 -0.0812418 -0.11884793 -0.23281404 0.07365711 0.03992903 -0.04336659
-0.13290647 -0.11678706 0.0074658324 -0.07075777 -0.07990987 0.0050198683 0.08337999 -0.11679527
-0.04893869 0.472913 -0.17053472 0.11620921 -0.10372484 -0.16734317 -0.042916257 -0.30297047
0.04631337 0.16548105 -0.09484809 -0.3336728 -0.30166447 -0.1432366 -0.08483968 0.10236795
0.2584793 0.09920551 0.031755883 0.08927763 -0.086757906 0.17074095 0.16034888 -0.35716552
0.1329668 -0.09716159 -0.043120377 0.21020019 0.39655355 0.17810634 -0.12336833 0.06584312
-0.018247567 -0.13680485 0.082519606 0.2577143 0.02848427 0.09960446 0.24697068 0.09227006
0.100200154 0.24455446 -0.40248185 -0.12071499 0.12917264 -0.11414574 -0.062368017 0.08160877
0.13652633 0.13399443 -0.12850767 -0.0006020218 0.006208301 0.120997645 0.057164256 0.15170474
-0.14524233 0.03882736 0.3231256 -0.08755265 -0.09261799 0.051388092 0.017911373 -0.15164444
-0.0025969055 -0.06988107 0.111932784 0.14036746 -0.113479525 -0.10291693 -0.22432306 -0.37970483
0.14189534 -0.09379242 0.29180336 0.2175334 -0.024363577 -0.2810673 -0.20051588 0.053099554
-0.037635684 0.1619308 0.091720544 -0.06294029 -0.05048402 0.03466271 -0.05488048 0.2551451
0.27869636 0.1522186 -0.10582659 0.09952916 0.21155201 -0.11405925 0.083415605 0.15943679
0.05628608 0.14016728 0.26504898 0.13708687 -0.020034397 0.053583637 -0.22764692 0.16167535
0.12243637 0.13498478 -0.10815101 0.090375476 -0.32784104 0.0128367245 -0.17677021 -0.09588338
0.044613868 0.15799944 0.07081428 0.27669734 0.04134111 -0.09864351 0.020533875 -0.14956728
0.03619363 -0.107728206 0.12550254 0.09385933 -0.043386262 0.047973327 -0.0501181 0.023750326
00000000: c06a a2bc a6bc 5bbe 6e4a 773d 9133 1ebe
00000010: 8f59 6cbb 6f3f 2cbc 8cb3 b63d e2a2 97be
00000020: 584e d63d 10c5 4abc b459 2e3e 3084 76be
00000030: 8fdd b2be 251c 36bd 4d22 413e bad2 14be
00000040: b8f0 2cbe b24e de3d 1d06 d4bd 10a6 02bd
00000050: 2a3d 8f3d ea26 bd3d 01f0 d93d 6210 4ebe
00000060: e61d ce3d 6ee3 32bd a277 02be 5912 743e
00000070: 562c cd3d dcd7 ce3c 1580 09be efdb cfbd
00000080: dfd8 0cbe 17b6 823d 13cb 3cbd c177 02be
00000090: 5a8c d13d dd7b 27bd 138c 833d c73f 673e
000000a0: 6f74 03be ddea 333e b220 61be c237 23bd
000000b0: a55b 853d 361f 33be d645 e03d 1876 5bbd
000000c0: b89e e33c e07a 1dbe bc57 233d ee30 77bd
000000d0: 8f1c 963e 5037 48be 060a e73b 5df3 5cbd
000000e0: 3fcd cfbe 418c b53d e24f 193e 947b 0abe
000000f0: 9653 113e d255 3c3e 7460 90bd ed18 0b3e
00000100: 583d 14be f1f8 d63d 838b 5c3e f0e8 7e3c
00000110: d007 323d 96dc 67bc a73e 54be 9cb1 c9bd
00000120: 9ae7 c93d 289a 2b3d 59d9 163e 2e23 0ebe
00000130: 44a6 49be ac64 58be a3a4 f7bd 4013 113b
00000140: 5161 413e ae4d 8e3c 43d8 bebd e523 14be
00000150: 9a25 bf3d de97 d83d 9bcd fabc f927 f83d
00000160: 62a3 29be 372c 243c c5d9 0dbe 2d0f 1c3e
00000170: cd11 3f3d 0ed8 113e 43cb 97bc 930d 3d3e
00000180: d3e8 7b3b 90a0 22bb 348e 123d a0c5 ea3b
00000190: 2cdb 2abe 11a2 1dbe bdd4 10be c6b7 a33d
000001a0: ce34 77bc b802 853c 9046 2f3e e525 0cbc
000001b0: f1ac bdbe a0e1 a1bc c9d1 0d3e b4fe b7bd
000001c0: bf45 d1bd 026e d9bd 1a62 a6bd 8b66 f3bd
000001d0: ce66 6ebe 8ad9 963d 9f8c 233d 2aa1 31bd
000001e0: a218 08be 0e2e efbd f1a3 f43b 73e9 90bd
000001f0: c9a7 a3bd b57d a43b 21c3 aa3d 5c32 efbd
00000200: f073 48bd a721 f23e a7a0 2ebe 18ff ed3d
00000210: b06d d4bd 025c 2bbe f5c8 2fbd f21e 9bbe
00000220: 17b3 3d3d dd73 293e b73f c2bd 29d7 aabe
00000230: c473 9abe 9eac 12be 6dc0 adbd 4aa6 d13d
00000240: 6657 843e 422c cb3d 7512 023d 31d7 b63d
00000250: 21ae b1bd b7d6 2e3e 7f32 243e 66de b6be
00000260: 7328 083e a8fc c6bd fe9e 30bd b83e 573e
00000270: 1109 cb3e 8261 363e 89a8 fcbd c2d8 863d
00000280: ec7b 95bc 9216 0cbe 0a00 a93d 21f3 833e
00000290: d857 e93c 6cfd cb3d e2e5 7c3e 16f8 bc3d
000002a0: bd35 cd3d 7c6c 7a3e 1a12 cebe 6c39 f7bd
000002b0: d545 043e 3ec5 e9bd 9b75 7fbd 8022 a73d
000002c0: 8fcd 0b3e d635 093e 8497 03be 00d1 1dba
000002d0: 016f cb3b 9dcd f73d 1125 6a3d 7d58 1b3e
000002e0: 68ba 14be 7009 1f3d b870 a53e ce4e b3bd
000002f0: 80ae bdbd 527c 523d dfba 923c ae48 1bbe
00000300: d830 2abb ce1d 8fbd 043d e53d 7dbc 0f3e
00000310: f467 e8bd 1dc6 d2bd f2b4 65be ac68 c2be
00000320: 034d 113e 3e16 c0bd 4067 953e 13c1 5e3e
00000330: 2096 c7bc 0ee8 8fbe 0954 4dbe eb7e 593d
00000340: e027 1abd 30d1 253e fbd7 bb3d d7e6 80bd
00000350: 55c8 4ebd 7cfa 0d3d 5bca 60bd 61a2 823e
00000360: 4ab1 8e3e 31df 1b3e 9cbb d8bd f2d5 cb3d
00000370: 17a1 583e e597 e9bd cdd5 aa3d 6643 233e
00000380: 3c8c 663d 0388 0f3e 80b4 873e 8060 0c3e
00000390: 2d1f a4bc 847a 5b3d 461c 69be 398e 253e
000003a0: ebbf fa3d 7339 0a3e 477e ddbd c716 b93d
000003b0: c8da a7be 2051 523c 4003 35be 815e c4bd
000003c0: 08bd 363d 9bca 213e 1407 913d 46ab 8d3e
000003d0: 4c55 293d 9c05 cabd a836 a83c 2a28 19be
000003e0: c63f 143d 9ba0 dcbd bd83 003e 5239 c03d
000003f0: cbb5 31bd ae7f 443d a348 4dbd 0b90 c23c

sequential_2/dense_11/MatMul f4 [9, 64]
-1.0795193 -0.32894006 -0.0005274865 -0.26116547 0.033924732 0.12556557 0.11301629 0.2952611
-0.15332656 0.020475632 0.15903777 -0.8047604 0.2639065 0.07165907 0.10474255 -1.0060556
-0.4546526 -0.2592951 -0.07627993 0.1422614 -0.054349337 0.10851791 -0.08025807 0.045778517
-0.05971824 0.014302477 0.050703257 0.039977796 0.25156397 0.06409716 -0.4694638 -0.32344154
-0.2190742 0.012650497 -0.43751073 -0.060827985 0.27428845 0.11862151 0.30904657 0.049697608
-0.1959697 0.13548219 0.09525757 0.039551575 0.21296336 0.08260199 0.29583508 -0.07294226
0.21265022 0.040484328 0.10024435 0.037247542 -0.23061673 -0.22314556 -0.21064076 0.112154886
-0.6625467 -0.06506452 0.056138474 -0.17642735 0.17747678 -0.2981304 0.034498665 -0.74411637
0.2484734 0.09425689 -0.5911258 0.033022813 -0.0928007 -0.237056 0.14663303 -0.18869314
-0.2603919 -0.19554566 -0.039029635 0.2455726 -0.087999076 -0.8352742 -0.2162701 0.15087566
-0.07548657 -0.09149178 0.09129029 -0.32983738 0.08831408 -0.24390748 0.11988345 0.18510023
0.19152363 0.069063224 -0.14491376 0.022712607 -0.06309848 -0.6248315 0.2672451 0.083149575
0.002270936 -0.47009042 -0.031221414 -0.12166128 0.22454491 -0.4929381 -0.13291447 -0.46021566
-0.11294164 -0.6217174 -0.085406296 0.07621752 0.016073886 0.25063577 -0.379971 0.026688494
-0.21037377 -0.6427264 -0.11853785 -1.6668637 0.17789423 0.0779136 -0.25820696 -0.68224454
-0.011660035 -0.34176543 -0.3526627 -0.5132387 -0.15233976 0.020337489 0.0774969 0.0702744
-0.42207843 -0.9660252 0.086000495 -0.030333333 -0.23375621 0.1411534 -0.2928184 -0.2746541
-0.23795457 -0.079816274 0.19895422 -0.6191518 0.14548792 0.12983763 -0.14726518 -0.6827977
-0.80068976 0.12156835 -0.21508448 -0.12563801 0.2245327 -0.09034145 -0.1510219 -0.11634962
-0.10149069 -0.05626814 0.18340325 -0.49372938 0.24674322 0.10994951 -0.29931137 -0.18425427
0.055696707 0.02193221 0.12709007 -0.10915511 0.19298069 0.16663565 0.27971157 -0.27734938
-0.118087135 0.1697133 -0.1444463 0.19598252 0.20724685 0.043150052 0.3337601 0.018735902
0.20748815 -0.2434026 0.05218091 0.13896884 -0.28050673 -0.05628662 -0.023236204 0.14080223
-0.7399459 -0.02217055 0.016390396 -0.2150912 0.16791442 -0.25934207 0.0461549 -0.7610613
-0.2959303 0.0604818 -0.8261797 0.16236405 -0.02089291 -0.11120539 0.16334206 0.06712391
0.20099442 -0.6422613 -0.059606202 0.11115229 -0.085971735 -0.17071833 -0.06067073 0.18389201
0.05642315 -0.07890802 -0.42878175 -0.011723055 0.04758852 0.25072262 -0.0024581426 0.22474454
0.21970941 -0.3855755 -0.08582844 -0.9998947 -0.030249497 -0.13286856 0.11154487 0.007851882
0.059519876 -0.9113144 0.08015092 -1.1558738 0.18118039 -0.07617147 -0.1364169 -0.25773174
-0.12542614 -0.5135846 -0.058646705 -0.43346807 -0.3490699 0.19699465 -0.41082472 0.44766334
-0.4137183 -0.892809 -0.2763695 0.120156534 -0.09870343 0.032017343 0.11370768 0.20727865
0.10300053 0.012597871 -0.62208027 0.20049396 -0.07087497 -0.86094695 -0.021156052 0.06907383
00000000: b02d 8abf d56a a8be 0547 0aba 7bb7 85be
00000010: a9f4 0a3d 4394 003e 1675 e73d 772c 973e
00000020: a301 1dbe 83bc a73c ccda 223e c704 4ebf
00000030: c11e 873e fec1 923d 4383 d63d 6ec6 80bf
00000040: 3ac8 e8be 54c2 84be a738 9cbd f9ac 113e
00000050: 699d 5ebd a33e de3d 585e a4bd 4182 3b3d
00000060: 1d9b 74bd f054 6a3c 38ae 4f3d c2bf 233d
00000070: fecc 803e 5f45 833d 8f5d f0be 219a a5be
00000080: fd54 60be 0844 4f3c 6801 e0be c426 79bd
00000090: 896f 8c3e d6ef f23d 5a3b 9e3e b88f 4b3d
000000a0: 48ac 48be d8bb 0a3e 6716 c33d d500 223d
000000b0: 1113 5a3e 3b2b a93d b277 973e c062 95bd
000000c0: fbc0 593e e5d2 253d e94c cd3d e190 183d
000000d0: cb26 6cbe 4580 64be 36b2 57be 76b1 e53d
000000e0: a99c 29bf 8c40 85bd 75f1 653d 5fa9 34be
000000f0: 79bc 353e 8ca4 98be 794e 0d3d 697e 3ebf
00000100: d06f 7e3e c209 c13d 0554 17bf ee42 073d
00000110: 4b0e bebd cfbe 72be f826 163e c638 41be
00000120: 1652 85be 1f3d 48be 8add 1fbd 6277 7b3e
00000130: dc38 b4bd 88d4 55bf e975 5dbe 267f 1a3e
00000140: b498 9abd 0b60 bbbd 67f6 ba3d 72e0 a8be
00000150: 03de b43d e2c2 79be 7485 f53d ea8a 3d3e
00000160: c51e 443e 0571 8d3d 4664 14be ca0f ba3c
00000170: c739 81bd f5f4 1fbf 5ad4 883e 534a aa3d
00000180: fcd3 143b b1af f0be 0dc4 ffbc 8d29 f9bd
00000190: 1aef 653e 6262 fcbe bb1a 08be 63a1 ebbe
000001a0: f24d e7bd df28 1fbf 7fe9 aebd ee17 9c3d
000001b0: 62ad 833c 5553 803e 8f8b c2be d4a1 da3c
000001c0: 396c 57be b889 24bf f9c3 f2bd ca5b d5bf
000001d0: e829 363e 2a91 9f3d b433 84be 94a7 2ebf
000001e0: bb09 3fbc e1fb aebe 3590 b4be 9d63 03bf
000001f0: f4fe 1bbe ce9a a63c b2b6 9e3d 06ec 8f3d
00000200: aa1a d8be 6d4d 77bf 0721 b03d 9c7d f8bc
00000210: ca5d 6fbe 848a 103e 4bec 95be 769f 8cbe
00000220: 5daa 73be b776 a3bd a8ba 4b3e bb80 1ebf
00000230: c9fa 143e 28f4 043e afcc 16be d4cb 2ebf
00000240: 01fa 4cbf d4f8 f83d 1b3f 5cbe 40a7 00be
00000250: e6eb 653e f004 b9bd 7ca5 1abe b648 eebd
00000260: 5ada cfbd 6c79 66bd 10ce 3b3e 19ca fcbe
00000270: 41aa 7c3e 352d e13d 573f 99be 27ad 3cbe
00000280: 3b22 643d 2eab b33c e623 023e b78c dfbd
00000290: bb9c 453e 89a2 2a3e 5b36 8f3e bd00 8ebe
000002a0: abd7 f1bd 53c9 2d3e bbe9 13be a4af 483e
000002b0: 8538 543e 1cbe 303d 9be2 aa3e 097c 993c
000002c0: c677 543e 883e 79be a6bb 553d d94d 0e3e
000002d0: 949e 8fbe cd8c 66bd da59 bebc 762e 103e
000002e0: 186d 3dbf 039f b5bc 2745 863c de40 5cbe
000002f0: c2f1 2b3e 7cc8 84be ec0c 3d3d ead4 42bf
00000300: 2d84 97be c4bb 773d 8380 53bf c342 263e
00000310: 9c27 abbc a7bf e3bd 2443 273e 4378 893d
00000320: 7bd1 4d3e 3d6b 24bf a225 74bd d0a3 e33d
00000330: f311 b0bd c9d0 2ebe df81 78bd 304e 3c3e
00000340: f61b 673d 879a a1bd 4889 dbbe 0e12 40bc
00000350: 2eec 423d b75e 803e ca18 21bb 6f23 663e
00000360: 81fb 603e 276a c5be d2c6 afbd 19f9 7fbf
00000370: cbcd f7bc b20e 08be a371 e43d 2ea5 003c
00000380: 1dcb 733d e74b 69bf 2a26 a43d acf3 93bf
00000390: 5a87 393e caff 9bbd dfb0 0bbe 6af5 83be
000003a0: b66f 00be 487a 03bf 8737 70bd 87ef ddbe
000003b0: 4ab9 b2be f7b8 493e 9e57 d2be 2134 e53e
000003c0: e3d2 d3be 218f 64bf 4e80 8dbe a114 f63d
000003d0: 0625 cabd 9e24 033d 92df e83d db40 543e
000003e0: f1f1 d23d 4d67 4e3c a740 1fbf 4a4e 4d3e
000003f0: e526 91bd 0567 5cbf 754f adbc 9576 8d3d
